best.pt (torch, 234487 bytes, 3 tensors)

embedding.weight f4 [5826, 10]
0	0x3ef3e680	0.47636795
1	0xbdbe6838	-0.09297222
2	0x3efe464c	0.49663007
3	0xbd517ef0	-0.051146448
4	0xbe4a410c	-0.19751376
5	0xbe400ce8	-0.18754923
6	0xbea0e9b6	-0.31428307
7	0xbe5ba390	-0.21449113
8	0x3e151bd8	0.14561403
9	0x3c8df620	0.017329276
10	0x3e8e47f9	0.27789286
11	0x3e5f8762	0.21828988
12	0xbf2621b0	-0.64895153
13	0xbea89658	-0.32927203
14	0x3edd9f42	0.43285567
15	0xbe639ec3	-0.22228532
16	0xbe78f0aa	-0.24310556
17	0x3f24296f	0.6412572
18	0x3f2b935e	0.6702174
19	0x3f2fa8f4	0.68617177
20	0xbebc223d	-0.36744872
21	0x3f6b88d1	0.9200564
22	0x3e3d1555	0.18465169
23	0xbeeb3b6b	-0.4594377
24	0x3f80fe59	1.0077621
25	0xbe804ea1	-0.2505999
26	0x3d93f1ca	0.07223852
27	0x3e8636dd	0.26213732
28	0x3ef0d799	0.47039488
29	0x3e6ec25d	0.23316331
30	0x3eac83b5	0.33694234
31	0xbe7e6725	-0.24844034
32	0x3e130900	0.14358902
33	0x3f16c621	0.5889607
34	0x3e18d258	0.1492399
35	0x3d6577e0	0.056022525
36	0xbf021689	-0.50815636
37	0x3dbd6eb1	0.09249628
38	0xbba343b6	-0.004982437
39	0xbdb4110c	-0.08792314
40	0xbf8ad43a	-1.0846016
41	0xbfa81bed	-1.3133522
42	0xbf7732f9	-0.96562153
43	0x3e026aac	0.12736005
44	0xbf127d30	-0.5722227
45	0xbf79ffbc	-0.97655845
46	0xbe7a06e6	-0.24416694
47	0xbf8a1c2e	-1.078985
48	0xbd4a1468	-0.049335867
49	0xbf5a827f	-0.8535537
50	0xbe9802a9	-0.2968953
51	0x3f157757	0.58385223
52	0x3d6e7257	0.05821451
53	0xbeec161d	-0.4611062
54	0x3eedb27e	0.4642524
55	0xbe692d36	-0.22771153
56	0x3d802a99	0.06258125
57	0x3f0fb8d2	0.5614139
58	0x3d2694c8	0.040669233
59	0x3f2c2737	0.6724734
60	0xbd390cbe	-0.045178168
61	0x3f2da444	0.67828774
62	0xbcbe3be6	-0.023221921
63	0xbf370df0	-0.7150564
64	0x3e8df805	0.27728286
65	0x3eb4d592	0.3531919
66	0x3f003edf	0.50095934
67	0x3ecc961b	0.3995827
68	0x3f900a81	1.1253206
69	0x3f71306a	0.942145
70	0x3e61713e	0.22015855
71	0x3f752909	0.9576574
72	0x3e53fb3e	0.2070131
73	0x3e2fccf7	0.17168032
74	0x3fa1f1c5	1.2651907
75	0x3f0c0975	0.5470193
76	0xbec52abc	-0.38509166
77	0x3f131e1d	0.57467824
78	0xbe7d5eb7	-0.24743162
79	0x3ebf167e	0.37321848
80	0x3f945df5	1.1591173
81	0x3f7dd6c3	0.99155825
82	0x3ec50b72	0.38485295
83	0x3f036e82	0.51340497
84	0x3f0bd653	0.5462391
85	0x3f85dec8	1.0458612
86	0xbeda7ef9	-0.42674997
87	0x3e2973f1	0.16548134
88	0xbeed075a	-0.4629467
89	0x3e44385a	0.19162121
90	0x3f105bc2	0.5639001
91	0x3fb5ba12	1.4197409
92	0x3e821933	0.2540985
93	0x3f116734	0.567981
94	0x3f8840f9	1.0644828
95	0x3f8833d5	1.0640818
96	0xbd70fd0d	-0.058835078
97	0x3f653417	0.8953261
98	0x3ddd7888	0.10814005
99	0x3f18be6a	0.5966555
100	0xbf66c26a	-0.901404
101	0xbe180242	-0.14844611
102	0xbf9764cf	-1.1827639
103	0xbf435fee	-0.7631825
104	0xbe9ca20c	-0.30592382
105	0xbf14a5d9	-0.58065563
106	0x3f03e472	0.51520455
107	0xbd852a08	-0.065021574
108	0x3ed677d9	0.41888312
109	0x3f2ae8b7	0.66761345
110	0xbeb7eed2	-0.35924393
111	0xbf8f20c1	-1.1181871
112	0xbf4f6f8f	-0.810296
113	0x3cb24632	0.021761987
114	0xbf477a9b	-0.77921456
115	0xbf7040e1	-0.93849
116	0xbe76e053	-0.2410901
117	0xbf16a265	-0.58841544
118	0xbe2852bf	-0.16437815
119	0xbf889ee0	-1.0673485
120	0x3e13fbd0	0.14451528
121	0x3e4b4da9	0.19853844
122	0x3eadcf25	0.339471
123	0xbe0264a4	-0.12733704
124	0xbed958c0	-0.42450523
125	0xbed8065a	-0.42192346
126	0x3e724e3a	0.23662654
127	0xbf1f353a	-0.6219059
128	0xbef81849	-0.48456028
129	0x3ce4c23d	0.027924651
130	0xbfa8d734	-1.3190675
131	0xbfbc09d7	-1.4690503
132	0xbf353c80	-0.7079544
133	0xbe7d60ba	-0.2474393
134	0xbf9aaa29	-1.2083179
135	0xbfb17984	-1.3865209
136	0xbedf9c4d	-0.43673936
137	0xbf14982a	-0.58044684
138	0xbf3a96e7	-0.7288651
139	0xbf924a74	-1.1428971
140	0xc02ed63e	-2.7318263
141	0x3fa54549	1.2911769
142	0x3d28698d	0.041116286
143	0xc0008777	-2.008268
144	0x3fd3a468	1.6534548
145	0xbe2fa689	-0.17153372
146	0x4006f1d4	2.10851
147	0x4000809c	2.0078497
148	0x3fb67309	1.4253856
149	0x3fd9cb08	1.7015085
150	0xbfc570b8	-1.5425024
151	0xbe8a2bb2	-0.26986462
152	0xbf017687	-0.50571483
153	0xbf765a4c	-0.9623153
154	0xbe920402	-0.28518683
155	0xbe260bdd	-0.16215463
156	0x3f5f7973	0.8729469
157	0xbc1e2972	-0.009653436
158	0x3f7687a0	0.963007
159	0x3f69e245	0.91360885
160	0x3f887fbc	1.0663981
161	0x3f6b4f11	0.9191752
162	0x3f35f5de	0.7107829
163	0x3ec160b8	0.37769103
164	0xbdc63aa1	-0.09679151
165	0x3f660871	0.8985663
166	0xbf7ff417	-0.99981827
167	0x3de055e3	0.109538816
168	0xbe056045	-0.13025005
169	0xbf49fc8e	-0.7890099
170	0xc00df4af	-2.2180593
171	0x3e804c42	0.2505818
172	0xbfb6daeb	-1.4285558
173	0xbfbdafac	-1.4819236
174	0x3ecee276	0.4040715
175	0xbf37c726	-0.7178825
176	0x3e8a84f4	0.2705456
177	0x3f04d4f9	0.5188747
178	0x3f27f9b7	0.6561541
179	0x3f8042e3	1.0020412
180	0xbded5dd7	-0.11590164
181	0xbf391eb6	-0.72312486
182	0xbe11e47b	-0.14247315
183	0x3f4e9406	0.80694616
184	0xbf29c333	-0.66313475
185	0xbef20600	-0.47270203
186	0xbf2904ab	-0.6602275
187	0xbf6c05cc	-0.92196345
188	0xbf1c0893	-0.60950583
189	0xbe191bae	-0.14951965
190	0xbd87516a	-0.066073254
191	0xbf1aa01b	-0.6040055
192	0xbf0165f2	-0.5054618
193	0xbe704faf	-0.23467897
194	0xbf68b2c4	-0.90897775
195	0xbf0b4474	-0.54401326
196	0xbf192944	-0.5982859
197	0xbf52545a	-0.8215996
198	0xbee45c15	-0.44601503
199	0xbdbdda36	-0.09270136
200	0xbfc1e47c	-1.5147853
201	0x3db3042e	0.087410316
202	0xbf55779f	-0.8338565
203	0xbfab43ee	-1.3380105
204	0x3f5ab7b2	0.85436547
205	0xbe7a8c3a	-0.24467555
206	0x3fa634b1	1.298483
207	0x3f427902	0.75965893
208	0x3fd670b1	1.6753141
209	0x3f4848e1	0.78236204
210	0xbfb72b41	-1.4310075
211	0xbec41021	-0.38293555
212	0xbfb40479	-1.4063865
213	0xbf54fd1a	-0.831987
214	0xbe296b74	-0.16544896
215	0xbf5d7c50	-0.8651781
216	0xbe91f189	-0.2850459
217	0xbefc7475	-0.493076
218	0xbe411596	-0.1885589
219	0x3cf1af81	0.029502632
220	0xc009804f	-2.1484563
221	0xbf31b874	-0.6942208
222	0xbfbb2e55	-1.4623514
223	0xbfbb05c9	-1.461114
224	0xbf680a60	-0.9064083
225	0xbf6ac822	-0.9171163
226	0x3cb9a299	0.02266054
227	0x3f13410d	0.57521135
228	0x3ec0bc50	0.3764367
229	0x3e913400	0.28359985
230	0x3f29577f	0.66149133
231	0x3f381bd5	0.7191747
232	0xbcbec6ae	-0.023288097
233	0x3ddea536	0.10871355
234	0x3db8f8e6	0.090318486
235	0x3ee2e479	0.44314936
236	0xbf3828ef	-0.7193746
237	0xbe7bd849	-0.24594225
238	0xbe9766c6	-0.29570597
239	0x3e15cb6b	0.14628379
240	0xbfd85ba9	-1.6902972
241	0xbfc16766	-1.510968
242	0xbf8feda5	-1.1244398
243	0xbdf1cdf4	-0.118068606
244	0xbf837d43	-1.0272602
245	0xbfc46672	-1.5343764
246	0xbe9266c6	-0.28594035
247	0xbf2b2287	-0.6684956
248	0xbee3317d	-0.44373694
249	0xbf44766c	-0.767432
250	0xbe44f8bd	-0.19235511
251	0xbf64ca11	-0.8937083
252	0xbd350760	-0.044196486
253	0xbeb9e1b6	-0.36305016
254	0xbd9d9943	-0.07695248
255	0xbeef85cb	-0.46781763

fc.weight f4 [3, 10]
0	0x4011f652	2.2806592
1	0x3fe85620	1.8151283
2	0x40106c65	2.2566159
3	0x401a0ae0	2.4069138
4	0x3f4da304	0.8032687
5	0x4024aead	2.5731614
6	0xc000280b	-2.002444
7	0xbf97cf43	-1.1860126
8	0xbfce4e85	-1.6117712
9	0xbf8b03b6	-1.0860507
10	0xbf806a40	-1.0032425
11	0x40178851	2.367695
12	0x3f0e184f	0.5550584
13	0xbffa5f06	-1.9560249
14	0x3ffeb548	1.9899073
15	0x3f94c730	1.1623287
16	0x401f3ff7	2.488279
17	0x40303fe1	2.7538989
18	0x4021930b	2.5245998
19	0x40272889	2.611849
20	0xbfdc3ca5	-1.7206007
21	0xc00ebf2c	-2.2304182
22	0xc00c084a	-2.188006
23	0x3ec51292	0.3849073
24	0xc026fe50	-2.609272
25	0xc004dc77	-2.075956
26	0xbfd7e24e	-1.6865938
27	0xc0128ede	-2.28997
28	0xbfaf4f37	-1.369605
29	0xbff45296	-1.9087703

fc.bias f4 [3]
0	0x3d1ea3e0	0.038730502
1	0xbe8802c6	-0.26564616
2	0x3ecc8839	0.3994768
